PPG Analysis/运行代码/5分类70%准确率.pth (torch, 361890 bytes, 18 tensors)

gru.weight_ih_l0 f4 [192, 6]
0	0x3b864c20	0.0040984303
1	0x3c958e60	0.018256366
2	0xbb0ae280	-0.0021192133
3	0xbd313fa0	-0.04327357
4	0xbd9858a6	-0.07438783
5	0xbdc1419c	-0.09436342
6	0x3db2e1c0	0.08734465
7	0x3d0d7294	0.0345331
8	0x3da68ae4	0.0813196
9	0xbdde034c	-0.108404726
10	0x3d9125f6	0.070873186
11	0xbdcb151e	-0.09916137
12	0xbdc81f0e	-0.09771548
13	0xbcf4b368	-0.029870704
14	0x3d89fb9e	0.06737445
15	0x3d6fb8f4	0.058525994
16	0x3cab5fc0	0.02091968
17	0x3d28c6d0	0.041205227
18	0x3de5af32	0.112150565
19	0x3dcca0a4	0.09991577
20	0x3de3f8c0	0.1113143
21	0x3df7648a	0.12079723
22	0xbb6184c0	-0.00344114
23	0x3d5da0c8	0.05410841
24	0xbd8a83cc	-0.067634195
25	0x3d4851bc	0.048906073
26	0x3cc94c30	0.024572462
27	0xbd13be50	-0.036070168
28	0xbdec5c9e	-0.11541103
29	0x3dbd0e86	0.09231286
30	0x3ba8e640	0.005154401
31	0x3d22fde0	0.039792895
32	0xbd61b9c4	-0.0551088
33	0x3dd6e720	0.10493302
34	0xbd11b300	-0.0355711
35	0x3ac81800	0.0015265942
36	0xbd9e36ba	-0.07725282
37	0xbd1ff83c	-0.039055094
38	0xbd54dfdc	-0.0519713
39	0xbc7c5ea0	-0.01540342
40	0xbd40f098	-0.047104448
41	0xbdabb072	-0.08383264
42	0xbd4ac8d0	-0.049507916
43	0x3d45450c	0.04816155
44	0xbd758c40	-0.059948206
45	0xbdf2b0a2	-0.11850096
46	0x3ddecb8e	0.10878669
47	0x3da6af76	0.08138935
48	0xbc116020	-0.008873016
49	0x3d95e9b0	0.07319963
50	0xbdd7e5fe	-0.105419144
51	0xbd8f3c00	-0.06993866
52	0xbd62d088	-0.055374652
53	0x3dfb5efa	0.12273975
54	0x3bd8b3c0	0.0066132247
55	0xbbaa9ec0	-0.0052069128
56	0xbcf33c68	-0.02969189
57	0x3c90df98	0.017684743
58	0xbd150f18	-0.036391348
59	0xbda31624	-0.07963207
60	0xbdffc24a	-0.124882296
61	0xbaa51f80	-0.0012597889
62	0xbd7245ac	-0.059148476
63	0xbd4c9ee8	-0.049956232
64	0xbd46b2f4	-0.048510507
65	0xbda645d0	-0.081187844
66	0x3dee1a80	0.11626148
67	0xbd92bcf6	-0.07164948
68	0x3d10d164	0.03535594
69	0xbd428cd4	-0.047497585
70	0xbd659654	-0.056051567
71	0xbc6056b0	-0.013692543
72	0x3d815f1e	0.0631697
73	0x3b7fa900	0.0039010644
74	0x3a87e380	0.0010367483
75	0x3dedf050	0.116181016
76	0xbda10d54	-0.0786387
77	0x3c9b70b8	0.018974647
78	0xbd8f18fc	-0.06987187
79	0x3d83ea06	0.06441121
80	0xbc36a500	-0.0111477375
81	0xbdbb4558	-0.09144086
82	0xbda6ab5e	-0.081381544
83	0xbde4289a	-0.11140557
84	0x3d589a80	0.052881718
85	0x3d855670	0.06510627
86	0x3dcce47c	0.100045174
87	0x3d639d04	0.055569664
88	0x3dea1734	0.11430207
89	0xbd9b7caa	-0.07592137
90	0xbd6334e8	-0.055470377
91	0x3d29c644	0.041448846
92	0xbd9d30c8	-0.0767532
93	0xbd078f48	-0.033095628
94	0xbdee8386	-0.1164618
95	0x3b262800	0.0025353432
96	0xbcb1dc08	-0.021711364
97	0x3c7fe990	0.0156196505
98	0xbb8473e0	-0.0040421337
99	0xbddeafaa	-0.10873349
100	0x3db8be7e	0.090207085
101	0xbc977f58	-0.01849334
102	0x3d7b5320	0.06135857
103	0x3dc96da2	0.09835364
104	0x3d92d6d8	0.071698844
105	0x3d9d9e9a	0.076962665
106	0xbd9bba2e	-0.0760387
107	0x3d130c0c	0.03590016
108	0xbdbe09b4	-0.092791945
109	0x3ddc3342	0.10751964
110	0x3caa22a8	0.020768479
111	0x3de7ef04	0.113248855
112	0xbdb4fe32	-0.088375464
113	0x3b179c00	0.0023133755
114	0xbc9c5f36	-0.019088369
115	0x3db15ff4	0.0866088
116	0xbdd5bad8	-0.10436028
117	0x3da0e821	0.07856775
118	0x3d16892a	0.036751904
119	0xbd96af61	-0.073576696
120	0x3d7ac6d0	0.06122476
121	0xbdb1ec9e	-0.08687709
122	0x3dd82b3c	0.10555121
123	0x3d6acabc	0.05732225
124	0x3bd3a920	0.0064593703
125	0xbdca9812	-0.09892286
126	0x3db4ce84	0.08828452
127	0x3df91b96	0.12163465
128	0xbdff5a6a	-0.12468417
129	0xbdbfa388	-0.09357363
130	0xbc883050	-0.0166246
131	0xbdb68996	-0.08912961
132	0xbdea3c5c	-0.11437294
133	0x3c6622d0	0.014046386
134	0x3d9537da	0.072860435
135	0x3dc4b790	0.09605324
136	0x3de65a9a	0.112477496
137	0xbdaf88a4	-0.08570984
138	0x3dd61406	0.10453038
139	0x3dc51228	0.09622604
140	0xbdf89e68	-0.121395886
141	0xbde22e64	-0.110440046
142	0xbd93628e	-0.07196532
143	0xbdab2144	-0.08355954
144	0x3d6bfa48	0.057611734
145	0xbccfa7c0	-0.025348544
146	0xbdc1094c	-0.09425601
147	0x3d798114	0.060914114
148	0x3da2d5da	0.07950945
149	0x3da1f1fc	0.07907483
150	0xbdc93f5e	-0.098265395
151	0xbd057850	-0.032585442
152	0x3ddefd08	0.10888106
153	0x3da6b414	0.08139816
154	0xbc8ff990	-0.017575055
155	0x3de1c2ae	0.1102346
156	0xbd8f98e8	-0.070115864
157	0xbd1edd74	-0.038785413
158	0xbdb1bb98	-0.08678359
159	0xbdbd6206	-0.09247212
160	0xbc8a90a0	-0.016914666
161	0xbde4264e	-0.111401185
162	0xbddf657a	-0.10908027
163	0xbd91e7d4	-0.07124296
164	0xbd77274c	-0.06034021
165	0xbdfdf3ac	-0.12399992
166	0xbd3b9bf4	-0.045803025
167	0xbd73f308	-0.059557945
168	0xbdf84bae	-0.1212381
169	0x3d95aaf2	0.07307996
170	0xbc499510	-0.012303606
171	0xbdbbec22	-0.09175898
172	0x3cf407f0	0.029788941
173	0xbdbf9410	-0.093544126
174	0x3bf113e0	0.0073571056
175	0xbd8784a2	-0.066170946
176	0x3dbe36b2	0.09287776
177	0xbbeceea0	-0.0072305948
178	0x3debbd46	0.115107104
179	0xbdde95d8	-0.10868424
180	0x3d501db4	0.050809577
181	0xbd5cb144	-0.05387999
182	0x3dec0940	0.11525202
183	0x3bfb8ec0	0.0076769292
184	0xbdfe5146	-0.124178454
185	0xbd76d690	-0.060263216
186	0xbd52f49c	-0.05150281
187	0x3dd83ea0	0.1055882
188	0x3d099168	0.033585936
189	0x3d8e3920	0.069444895
190	0xbc436900	-0.011926889
191	0xbc063c00	-0.008193016
192	0xbd8fb25c	-0.07016441
193	0xbd8aea94	-0.067830235
194	0xbd98e786	-0.074660346
195	0x3dbb5e72	0.091488734
196	0xbde07a22	-0.10960795
197	0xbd8dddb0	-0.06927049
198	0x3c7fb410	0.015606895
199	0xbd6931ec	-0.056932375
200	0xbda0a5ba	-0.0784411
201	0x3d0d41f0	0.03448671
202	0xbd5f5c7c	-0.05453156
203	0xbc636e50	-0.013881281
204	0xbddd2b22	-0.107992426
205	0x3dc909a4	0.09816292
206	0xbd95e156	-0.0731837
207	0x3cc49c18	0.024000213
208	0xbd6ddfc8	-0.058074743
209	0xbdb78918	-0.089616954
210	0xbcd84e70	-0.02640459
211	0x3d5e6808	0.05429843
212	0xbd0acd2c	-0.033887073
213	0x3d868382	0.06568052
214	0x3d356e58	0.044294685
215	0x3bc8ab00	0.0061239004
216	0xbd204d00	-0.039135933
217	0x3c02c5c0	0.007981718
218	0xbd90e054	-0.07074037
219	0x3c317d90	0.010833159
220	0x3b0542c0	0.0020333976
221	0xbdf9b4ea	-0.1219271
222	0x3de40164	0.11133078
223	0xbc92eed0	-0.01793614
224	0xbc175930	-0.009237573
225	0x3d235e70	0.039884984
226	0x3d83acce	0.06429444
227	0x3cd05ca8	0.025434807
228	0x3dd10e44	0.10207799
229	0x3dbbc87e	0.091691
230	0xbcae9840	-0.021312833
231	0xbd543cdc	-0.051815853
232	0xbb4f8900	-0.0031667352
233	0x3c933d20	0.017973483
234	0x38b9f000	8.866191e-05
235	0xbdd8b71c	-0.105818
236	0x3ddd6c9c	0.10811731
237	0xbdea71ec	-0.1144751
238	0x3da8fffe	0.08251952
239	0xbd158314	-0.03650196
240	0x3d9ca844	0.076492816
241	0xbb862ae0	-0.0040944666
242	0xbd8a00f0	-0.0673846
243	0x3c72fe80	0.014831185
244	0x3d1f1038	0.038833827
245	0x3db08220	0.086185694
246	0xbd992342	-0.07477428
247	0x3db96544	0.09052518
248	0xbc188eb0	-0.009311363
249	0xbdfd73b6	-0.12375586
250	0x3dbd5100	0.09243965
251	0xbd1d7b78	-0.038447827
252	0xbdd7894c	-0.10524234
253	0xbc47fc10	-0.0122060925
254	0xbad53f80	-0.0016269535
255	0x3ca86be8	0.020559266

gru.weight_hh_l0 f4 [192, 64]
0	0x3d5bef78	0.053695172
1	0xba4e0f00	-0.00078605115
2	0xbda87346	-0.08225112
3	0x3dc01816	0.09379594
4	0x3cbd89c8	0.023136988
5	0xbd373fe8	-0.04473868
6	0xbc982b60	-0.01857537
7	0x3d680bf0	0.05665201
8	0xbc05efc0	-0.008174837
9	0x3d094f9c	0.033523187
10	0x3c2ef1e0	0.010677785
11	0xbbb26380	-0.00544399
12	0xbdbb4fca	-0.09146078
13	0x3dc68b16	0.09694497
14	0x3cc81018	0.024421737
15	0xbdeeace4	-0.1165407
16	0xbdace178	-0.08441442
17	0x3d1ce1e4	0.038301364
18	0x3ddfcd26	0.10927801
19	0xbdbb58c2	-0.091477886
20	0x3c6abf60	0.014327854
21	0x3cc2a598	0.023760602
22	0xbdde44dc	-0.10852978
23	0x3dc7fedc	0.097654074
24	0xbd12e038	-0.035858363
25	0xbd490358	-0.049075454
26	0x3db04898	0.08607596
27	0x3b8db4c0	0.0043245256
28	0x3d389d40	0.04507184
29	0x3d14ab00	0.03629589
30	0xbdc53600	-0.0962944
31	0xbd34a0a4	-0.04409851
32	0x3d989fae	0.074523315
33	0x3ddb813a	0.107180074
34	0xbc7f5bb0	-0.015585825
35	0x3d63ebbc	0.055644736
36	0xbdb7c1b8	-0.08972496
37	0xbd97b93e	-0.07408379
38	0xbdb67bf6	-0.089103624
39	0xbc515b10	-0.012778059
40	0xbdbacd08	-0.09121138
41	0xbd5386d4	-0.051642254
42	0xbde87358	-0.11350125
43	0xbd4a6af8	-0.04941842
44	0x3c9f7988	0.01946713
45	0x3c90fcc0	0.017698646
46	0xbd5d4870	-0.05402416
47	0x3dd5a4c2	0.10431816
48	0x3a547b00	0.00081054866
49	0x3dbd6bfc	0.09249112
50	0x3c965930	0.018353075
51	0xbd26fae4	-0.04076661
52	0x3d14a8d8	0.036293834
53	0x3dc05596	0.09391324
54	0xbbcd1b00	-0.006259322
55	0xbdcfb3f2	-0.10141744
56	0x3df94926	0.12172155
57	0xbd983166	-0.07431297
58	0x3bd0f040	0.0063762963
59	0x3daa21c4	0.083072215
60	0x3dd4e262	0.103947416
61	0x3d71d3d4	0.059039906
62	0xbdb514d6	-0.08841865
63	0x3ca59b20	0.02021557
64	0x3dcb5a6a	0.099293545
65	0x3db673fc	0.08908841
66	0xbde7d0c0	-0.11319113
67	0x3d727db0	0.059201896
68	0xbdfa4c7a	-0.12221618
69	0xbdfcbfb4	-0.12341252
70	0xbdb2b3fc	-0.087257355
71	0xbdba7b5c	-0.0910556
72	0xbcd45d30	-0.025923342
73	0x3d409e64	0.047026053
74	0xbd8241e6	-0.063602254
75	0x3dad26bc	0.084546536
76	0x3ddd9cdc	0.10820934
77	0x3c4f24a0	0.012643009
78	0xbd527e2c	-0.051389858
79	0x3dc2cedc	0.095121115
80	0xbc7f01f0	-0.015564427
81	0x3d88ff80	0.06689358
82	0xbd06885c	-0.032844886
83	0xbdb298c8	-0.08720547
84	0xbdad10f6	-0.08450501
85	0x3cedb758	0.02901809
86	0x3db7e282	0.0897875
87	0xbd961434	-0.07328072
88	0xbca30548	-0.01989998
89	0xbd0110e4	-0.03151025
90	0xbdec103c	-0.11526534
91	0x3d816b8e	0.063193426
92	0xbd99fba4	-0.075187
93	0x3d8e27b4	0.069411665
94	0x3dbc36e2	0.091901556
95	0x3da9ba5e	0.082875
96	0xbd533478	-0.05156371
97	0x3cdce3a8	0.026964024
98	0xbd9636a0	-0.07334638
99	0xbb168c40	-0.002297178
100	0x3d2a3fec	0.041564867
101	0x3dff9c28	0.12480956
102	0x3daabe2e	0.08337055
103	0x3c0a5150	0.008442238
104	0xbdd3964e	-0.10331403
105	0xbdb8b3fa	-0.09018703
106	0xbd90980a	-0.07060249
107	0x3d05d940	0.03267789
108	0xbde5d85a	-0.112229064
109	0xbd2f5630	-0.042806804
110	0x3d2a9af0	0.041651666
111	0xbdb96bbc	-0.09053752
112	0xbd2239ec	-0.03960602
113	0x3da1c74e	0.078993425
114	0x3d278c6c	0.0409054
115	0x3d81e00e	0.06341563
116	0x3dbf2f42	0.093351856
117	0xbd0cc88c	-0.034370944
118	0xbd600684	-0.054693714
119	0x3ccb5a38	0.024823293
120	0xbd64fcb8	-0.055905074
121	0x3c7cc040	0.015426695
122	0xbd984a9a	-0.07436104
123	0x3d1638d0	0.036675274
124	0x3dcb3b24	0.099233896
125	0xbc3b4220	-0.01142934
126	0xbcaef260	-0.021355808
127	0xbdb01e8c	-0.08599576
128	0x3df61904	0.1201649
129	0xbdfe9ba0	-0.12432027
130	0xbae7c400	-0.0017682314
131	0xbc8a4e90	-0.016883165
132	0x3d9766ec	0.07392678
133	0x3d6a1678	0.057150334
134	0xbc8f0520	-0.017458498
135	0xbdf0a32a	-0.11749871
136	0x3deb7e84	0.1149874
137	0xbdb15914	-0.086595684
138	0x3cdeb4e0	0.027185857
139	0xbdf79d5e	-0.12090562
140	0x3d3ebfb8	0.046569556
141	0xbc0ff480	-0.008786321
142	0x3bd43560	0.0064760894
143	0x3d8398f8	0.06425661
144	0x3b00ce40	0.0019654185
145	0xbcde1990	-0.027111799
146	0xbdbffcec	-0.09374413
147	0xbcc49938	-0.023998842
148	0x3dacb93a	0.08433767
149	0xbd3bf834	-0.045891
150	0x3d024d60	0.03181207
151	0xbd82b27c	-0.063816994
152	0xbd35058c	-0.044194743
153	0xbd2c3e14	-0.04205139
154	0xbaca2680	-0.0015422851
155	0xbdabb9b2	-0.08385028
156	0xb95c8800	-0.00021031499
157	0xbdcbb670	-0.099469066
158	0xbd4b811c	-0.049683675
159	0xbd928196	-0.07153623
160	0xbcb11008	-0.02161409
161	0x3de97184	0.113986045
162	0xbd3f73e0	-0.046741366
163	0x3de48022	0.11157252
164	0x3c0099b0	0.007849142
165	0xbc9a0f98	-0.018806264
166	0xbdb25a84	-0.08708671
167	0x3c0c5400	0.008564949
168	0x3a635700	0.0008672327
169	0x3dbfb93c	0.093615025
170	0xbda6d60e	-0.081462964
171	0x3bc0f6e0	0.005888805
172	0x3cec1af8	0.028821453
173	0xbd1fb044	-0.03898646
174	0x3d63b0c8	0.055588514
175	0x3dcdf878	0.10057157
176	0x3de08908	0.10963637
177	0x3ddde116	0.10833947
178	0xbd4b7a14	-0.04967697
179	0xbb711cc0	-0.0036790818
180	0xbdf9b55e	-0.12192796
181	0x3dece0a8	0.11566287
182	0xbdf9f95a	-0.12205763
183	0xbd09d8ac	-0.0336539
184	0xbc07bc80	-0.008284688
185	0x3dc90ee8	0.09817296
186	0xbd46ec6c	-0.048565313
187	0xbd67a8ec	-0.05655758
188	0xbb7e1640	-0.0038770586
189	0x3df6f09a	0.1205761
190	0x3da5f644	0.08103612
191	0x3c6dc350	0.014511898
192	0x3d89577a	0.06706138
193	0xbc168ca0	-0.009188801
194	0xbdf1b3c8	-0.11801869
195	0x3de845b6	0.11341421
196	0x3c7aa830	0.015298888
197	0x3daa964a	0.083294466
198	0xbd7f74b0	-0.06236714
199	0xbdc4fb30	-0.09618223
200	0x3d940d24	0.07229069
201	0x3d84d400	0.06485748
202	0xbdc6013e	-0.09668206
203	0xbcb77200	-0.022393227
204	0x3dfab93a	0.122423604
205	0x3d1344a8	0.035954148
206	0xbdd0e7ac	-0.10200438
207	0xbd8edaba	-0.069753125
208	0xbce6b9c8	-0.02816476
209	0x3c9b9b20	0.018994868
210	0x3dbe648e	0.09296523
211	0xbdaf325c	-0.08554527
212	0xbcf926d8	-0.03041403
213	0x3dc32df0	0.09530246
214	0xbd7a6a84	-0.061136737
215	0xbd160eb4	-0.036635116
216	0xbc2d6750	-0.010583714
217	0xbc5b7db0	-0.013396665
218	0x3d861458	0.06546849
219	0xbcb557b0	-0.02213654
220	0xbd87bafe	-0.06627463
221	0x3cb51c10	0.022108108
222	0xbb5c3c80	-0.0033605397
223	0x3d2d55d0	0.042318165
224	0x3b7ac3c0	0.0038263649
225	0xbdc670c8	-0.0968948
226	0xbdaaaaf8	-0.08333391
227	0x3d98f600	0.07468796
228	0x3d87e740	0.06635904
229	0xbdacc464	-0.08435896
230	0xbb89fbe0	-0.004210934
231	0xbdc3ed02	-0.0956669
232	0xbdc221a4	-0.09479073
233	0xbd7c241c	-0.061557874
234	0x3d1c2b14	0.03812702
235	0x3deea54c	0.116526216
236	0x3de5e08c	0.112244695
237	0x3d8908fc	0.06691167
238	0x3cff7ec0	0.031188369
239	0xbd005bd0	-0.03133756
240	0xbca9eb20	-0.020742
241	0xbdeb05f8	-0.11475748
242	0xbdeb3070	-0.11483848
243	0x3df4d6ce	0.11955033
244	0xbd616374	-0.055026487
245	0xbdac5cbc	-0.08416125
246	0xbc005880	-0.0078336
247	0xbb161600	-0.0022901297
248	0x3dd25cec	0.1027163
249	0xbd99e308	-0.07514006
250	0xbd85bec8	-0.06530529
251	0x3d4a44e0	0.04938209
252	0xbd0d7ae4	-0.034541026
253	0xbdfcf04a	-0.12350519
254	0xbd8b62d2	-0.06805958
255	0xbd5763bc	-0.05258535

gru.bias_ih_l0 f4 [192]
0	0x3dfc37bc	0.12315318
1	0x3da6bce0	0.08141494
2	0x3dbf01c6	0.0932651
3	0xbd9c7fde	-0.07641576
4	0xbd1fc800	-0.039009094
5	0x3dad48d6	0.08461158
6	0x3d8d55c0	0.06901121
7	0x3d321b44	0.043483034
8	0xbd2aa3b8	-0.04166004
9	0x3daa7108	0.0832234
10	0x3d2a06dc	0.041510448
11	0xbccb4b38	-0.02481614
12	0x3d2809b0	0.041024864
13	0xbda7e89e	-0.08198665
14	0x3d0518c8	0.032494336
15	0xbd89cb7c	-0.06728265
16	0xbdb10b8a	-0.08644779
17	0xbd991240	-0.07474184
18	0xbd33581c	-0.0437852
19	0x3d6b2a94	0.057413653
20	0xbd15c228	-0.036562115
21	0xbdd8637a	-0.10565849
22	0xbdfcfcda	-0.12352915
23	0xbd582e74	-0.052778676
24	0x3d5b7fe8	0.053588778
25	0xbdd6a8be	-0.10481404
26	0x3ccdf848	0.025142804
27	0x3ddfaaa2	0.109212175
28	0x3de39a78	0.11113447
29	0x3d64857c	0.055791363
30	0xbc7b9ea0	-0.015357643
31	0xbd8b428c	-0.06799802
32	0xbce3b138	-0.027794465
33	0x3dab3b80	0.08360958
34	0xbc9193d0	-0.017770678
35	0xbd97ed12	-0.074182644
36	0xbd02a560	-0.031895995
37	0x3bfb6840	0.0076723397
38	0xbd63abe8	-0.055583864
39	0xbdc13aaa	-0.094350174
40	0x3c4659e0	0.012106389
41	0x3dafa9fe	0.08577345
42	0x3cd73388	0.02626969
43	0xbdf5187c	-0.11967561
44	0x3a04a200	0.000505954
45	0x3dd5fe12	0.10448851
46	0xbb72dc80	-0.0037057698
47	0x3de1451e	0.10999511
48	0x3dc65760	0.09684634
49	0x3dd8ed8a	0.10592182
50	0x3dde9c10	0.1086961
51	0xbdfc866a	-0.12330325
52	0x3de4b3c0	0.11167097
53	0x3db7c292	0.08972658
54	0xbda7e4ce	-0.08197938
55	0x3d9818ca	0.07426603
56	0x3d9f6f08	0.077848494
57	0x3dbba968	0.09163171
58	0xbdd32824	-0.103103906
59	0xbdf9ac58	-0.12191075
60	0xbda7f3e0	-0.08200812
61	0xbd569fe4	-0.052398577
62	0x3db96610	0.0905267
63	0x3df32904	0.118730575
64	0x3d7da11c	0.061921224
65	0x3de3baec	0.11119637
66	0x3df27ec6	0.11840586
67	0xbdf9b2d8	-0.12192315
68	0x3d8bf38a	0.06833561
69	0x3defb398	0.11704177
70	0xbde6b9be	-0.11265896
71	0x3ab46180	0.0013761967
72	0x3db647bd	0.08900402
73	0xbd477e2c	-0.04870431
74	0xbd0f80b0	-0.035034835
75	0xbd17099c	-0.0368744
76	0x3d7cf4dc	0.061756954
77	0x3dfc1504	0.12308696
78	0xbd0840ed	-0.033265043
79	0xbc601530	-0.0136769265
80	0x3d7813f4	0.060565904
81	0x3d3a5bcd	0.045497704
82	0xbd26315c	-0.040574417
83	0x3dda00c2	0.10644676
84	0xbde264d6	-0.11054389
85	0xbdda1efc	-0.10650441
86	0x3c8e36d8	0.017360136
87	0xbdc0bd58	-0.094111145
88	0xbd2153a8	-0.03938642
89	0x3dfa4ebc	0.12222049
90	0xbd170b12	-0.03687579
91	0x3de6bf00	0.11266899
92	0xbd717690	-0.05895096
93	0xbd8ac004	-0.06774905
94	0xbd0fa088	-0.035065204
95	0xbc9c1d18	-0.019056842
96	0xbd9ac61e	-0.07557319
97	0xbd0d5ed8	-0.03451428
98	0xbd644bb4	-0.05573626
99	0xbcf7bfd8	-0.030242845
100	0x3c02308f	0.007946148
101	0x3d85b556	0.06528728
102	0xbdcfbc58	-0.101433456
103	0x3d304a72	0.043039747
104	0x3d992eee	0.07479654
105	0xbdf2f436	-0.11862986
106	0x3dec03d8	0.11524171
107	0xbd00caf2	-0.031443544
108	0x3dc032d1	0.093846925
109	0xbdf9b05e	-0.121918425
110	0x3d005bac	0.031337425
111	0x3d3bd5d0	0.045858204
112	0xbd17a554	-0.037022904
113	0x3d26275d	0.040564884
114	0xbc8dd4a8	-0.017313316
115	0x3cd86348	0.026414528
116	0x3db2960e	0.08720027
117	0xbc4ccec0	-0.012500465
118	0x3be614ca	0.007021521
119	0xbd8a3230	-0.06747854
120	0x3d18ea28	0.037332684
121	0xbc3ac730	-0.011400029
122	0x3d2ba818	0.041908354
123	0xbdfd0955	-0.123552956
124	0xbd4f03b5	-0.050540645
125	0x3da79114	0.08181968
126	0x3da84250	0.08215773
127	0x3ddbe11c	0.107362956
128	0x3d940dca	0.072291926
129	0xbdd0048e	-0.10157119
130	0xbdddb9ec	-0.108264774
131	0xbd9e420a	-0.0772744
132	0x3d8733c6	0.06601672
133	0x3d9ab57c	0.07554147
134	0xbdb114bc	-0.08646533
135	0x3af27854	0.0018498995
136	0xbc9c5ea0	-0.01908809
137	0xbdbc16bb	-0.09184023
138	0xbd2c6684	-0.042089954
139	0x3dd9f790	0.10642922
140	0xbd9f18ab	-0.07768377
141	0xbda64150	-0.08117926
142	0xbce46820	-0.027881682
143	0x3d598dfc	0.053113922
144	0xbda7a7b4	-0.08186284
145	0x3dcb55e6	0.09928493
146	0x3ddaac44	0.10677388
147	0x3de68bf0	0.1125716
148	0xbd7cb730	-0.06169814
149	0xbcb83628	-0.022486761
150	0xbd82249e	-0.063546404
151	0x3df4c416	0.11951463
152	0xbcc48780	-0.023990393
153	0xbdf14302	-0.11780359
154	0x3d2352ac	0.039873764
155	0xbd4855dc	-0.048910007
156	0xbd93fb56	-0.07225673
157	0x3d4afc8c	0.049557254
158	0x3d86420c	0.06555566
159	0xbda2b05e	-0.079437956
160	0xbccec93a	-0.025242437
161	0x3dbb9320	0.09158921
162	0x3d36d9e8	0.044641405
163	0xbd44eee0	-0.04807937
164	0xbb406a80	-0.0029360354
165	0xbcb1de58	-0.021712467
166	0xbd1fccf8	-0.039013833
167	0x3d98b910	0.07457173
168	0xbc91ac78	-0.017782435
169	0x3d9578bc	0.07298419
170	0x3d0d03fc	0.034427628
171	0xbdc3f151	-0.09567512
172	0x3ceb04af	0.028688757
173	0x3c09b620	0.008405238
174	0x3dc5c4ae	0.09656654
175	0x3d8bad3e	0.06820153
176	0x3ba62100	0.005069852
177	0xbd2ba1ab	-0.041902225
178	0x3dabce6e	0.08388983
179	0xbc9e4d88	-0.01932408
180	0x3bd6af40	0.006551653
181	0xbc2ceaa0	-0.010553986
182	0xbdeb9a88	-0.11504084
183	0xbd8af662	-0.06785275
184	0xbc851060	-0.01624316
185	0xbd611bbc	-0.05495809
186	0xbcfe4c00	-0.031042099
187	0x3d9c56bf	0.07633733
188	0x3b6fcf80	0.0036592185
189	0xbdde5990	-0.108569264
190	0x3da09cc9	0.078424044
191	0x3d0ff26c	0.0351433

gru.bias_hh_l0 f4 [192]
0	0x3c989510	0.018625766
1	0x3d18b5e8	0.037282854
2	0x3d72b860	0.059257865
3	0x3df59c9a	0.1199276
4	0x3d717018	0.05894479
5	0x3ceb5420	0.028726637
6	0x3dfd6cd8	0.12374276
7	0x3de52536	0.11188738
8	0x3c7eed00	0.015559435
9	0xbd8dfb32	-0.06932677
10	0x3dc13d68	0.094355404
11	0x3dc929f4	0.09822455
12	0xbd84c2fe	-0.06482504
13	0xbdc4e8a0	-0.09614682
14	0xbce5b110	-0.028038532
15	0xbcb02020	-0.021499693
16	0xbd615020	-0.055008054
17	0x3d818dc6	0.06325869
18	0xbdee3958	-0.11632031
19	0x3d4f64c8	0.050633222
20	0xbc8cb6a8	-0.017176941
21	0xbdb9255a	-0.09040327
22	0x3d8b20e6	0.06793384
23	0x3d8334d2	0.06406559
24	0x3dac52dc	0.08414242
25	0xbd8efc10	-0.06981671
26	0x3cb5d418	0.02219586
27	0xbcc2a670	-0.023761004
28	0x3dcd0d1c	0.10012266
29	0xbdb8e058	-0.09027165
30	0xbd894c54	-0.067040116
31	0xbdc8b688	-0.0980044
32	0xbd342784	-0.043982998
33	0x3d407820	0.04698956
34	0xbc21d5e0	-0.009877652
35	0xbdf8b5e4	-0.12144068
36	0x3bbca4a0	0.0057569295
37	0x3db4c994	0.088275105
38	0xbd1674d8	-0.036732525
39	0xbd884d30	-0.06655347
40	0x3d904728	0.07044822
41	0xbd809a5a	-0.0627944
42	0x3c29e0f0	0.010368571
43	0xbde85d86	-0.11345963
44	0xbdfde81c	-0.12397787
45	0xbb77cd40	-0.0037811548
46	0xbd0e2fa8	-0.034713417
47	0x3d9b3e38	0.07580227
48	0x3c4fd100	0.012684107
49	0x3d9ee9d0	0.0775944
50	0xbd84af7a	-0.06478782
51	0xbdc1df1e	-0.09466384
52	0xbc840238	-0.01611434
53	0xbdad1fcc	-0.084533304
54	0xbdf0a72a	-0.11750634
55	0xbd2e229c	-0.042513475
56	0x3df381b8	0.11889976
57	0x3dca4f42	0.098783985
58	0xbc495cf0	-0.012290224
59	0xbcea5b00	-0.028607845
60	0x3de4cca8	0.111718476
61	0xbda8d94a	-0.082445696
62	0x3d8a2526	0.06745367
63	0xbcb775c0	-0.022395015
64	0x3d933462	0.071877256
65	0x3b9e2360	0.0048259944
66	0xbd96c10c	-0.073610395
67	0x3cf5b810	0.029994994
68	0x3c351320	0.011051923
69	0xbda4b7f4	-0.08042899
70	0x3d104900	0.03522587
71	0xbdf7a620	-0.12092233
72	0x3ccf81b8	0.02533041
73	0x3cd92768	0.026508048
74	0x3cb53768	0.022121146
75	0x3b151d00	0.002275288
76	0xbdccd29c	-0.10001108
77	0xbdd7c026	-0.10534696
78	0x3dc31dd4	0.09527174
79	0x3dc204f2	0.094735995
80	0xbd96c258	-0.07361287
81	0xbd29efcb	-0.04148845
82	0x3df57314	0.1198484
83	0xbcdb17d8	-0.026744768
84	0x3ddd9ffa	0.10821529
85	0x3d4abe24	0.04949774
86	0xbde3b73c	-0.111189336
87	0xbd77f5c0	-0.0605371
88	0x3d8ff8aa	0.07029851
89	0x3ca82a88	0.020528093
90	0xbdac7ffe	-0.0842285
91	0x3da04778	0.078261316
92	0x3d01923c	0.0316336
93	0x3dbed7f8	0.093185365
94	0x3cbbe9d0	0.022938639
95	0x3d91dcfa	0.07122226
96	0x3b12e180	0.002241224
97	0x3c949ffa	0.018142689
98	0x3d5642bc	0.052309737
99	0x3c92c2c8	0.017915145
100	0xbd866414	-0.06562057
101	0xbd58606c	-0.05282633
102	0x3cf013b0	0.029306263
103	0x3d32f596	0.04369124
104	0xbbd43080	-0.006475508
105	0xbdc144bc	-0.09436938
106	0x3d871880	0.0659647
107	0x3df6d561	0.120524175
108	0x3da76a3d	0.0817456
109	0xbdbeb5fd	-0.09312055
110	0x3d5d06f0	0.053961694
111	0x3b7bb080	0.0038404763
112	0x3d67efc4	0.056625143
113	0xbdb846a3	-0.08997848
114	0xbd098f30	-0.03358382
115	0xbdacb7cc	-0.08433494
116	0x3db60772	0.08888139
117	0xbd9d000a	-0.07666023
118	0x3cb302c5	0.021851907
119	0x3d04cc34	0.032421306
120	0xbd81abb4	-0.06331578
121	0xbdf3f85a	-0.11912604
122	0x3d47d2d8	0.04878506
123	0xbd86c93e	-0.06581353
124	0x3d1ad407	0.03779986
125	0xbdc5dd74	-0.096613795
126	0xbdd5b242	-0.104343906
127	0x3c9093f8	0.017648682
128	0xbdaf1516	-0.08548944
129	0xbd04fcc0	-0.032467604
130	0xbd69c1cc	-0.057069585
131	0xbbc68920	-0.006058827
132	0x3dc0e9a0	0.094195604
133	0xbddcf000	-0.10787964
134	0xbcd90d00	-0.026495457
135	0x3cb02a91	0.021504672
136	0xbcf9af10	-0.030478984
137	0xbd8c5e82	-0.068539634
138	0xbdb1a784	-0.08674529
139	0x3dc2c872	0.09510888
140	0x3cf82521	0.030291142
141	0xbc0fd670	-0.008779153
142	0x3d3633e0	0.044483066
143	0xbddd2bec	-0.10799393
144	0x3c6ecd10	0.014575258
145	0xbdebbdec	-0.11510834
146	0x3d7e0298	0.062014192
147	0xbdd06a26	-0.10176496
148	0x3d2bdb70	0.04195732
149	0x3c3b8cb0	0.011447117
150	0xbd8c4420	-0.06848931
151	0xbdceed50	-0.101038575
152	0x3cf0bb40	0.029386163
153	0xbdabcae6	-0.08388309
154	0x3d3f4e84	0.046705738
155	0xbc6f7650	-0.01461561
156	0xbdf38d34	-0.11892167
157	0xbdfeeb8c	-0.12447271
158	0x3ce38848	0.027774945
159	0xbdacf23c	-0.0844464
160	0xbd8cc792	-0.068740025
161	0x3d8446c4	0.0645881
162	0x3d089260	0.03334272
163	0xbd8ab3a2	-0.067725435
164	0xbc8a9038	-0.016914472
165	0x3d2af12c	0.041733906
166	0xbde4f0d0	-0.11178744
167	0xbd9931b4	-0.07480183
168	0xbdff456a	-0.124644116
169	0x3df75574	0.12076846
170	0x3d8d3be4	0.06896189
171	0x3d80406b	0.06262287
172	0xbd8b5dff	-0.06805038
173	0x3d956594	0.07294765
174	0xbc19cb30	-0.009386823
175	0xbd1a60c8	-0.037689954
176	0x3d894572	0.06702699
177	0xbbeeab66	-0.007283616
178	0x3d44afec	0.048019335
179	0x3de8c02a	0.113647774
180	0x3d94e5e6	0.07270412
181	0xbd4ef12c	-0.05052297
182	0xbd51aa54	-0.05118783
183	0x3dee37f0	0.11631763
184	0x3dbe2778	0.09284872
185	0xbd9f36ac	-0.077741
186	0x3d179aa0	0.037012696
187	0x3d42d374	0.04756494
188	0xbd0c6128	-0.034272343
189	0x3da4bb80	0.08043575
190	0xbd17eee2	-0.03709305
191	0xbbd0bfc0	-0.0063705146

gru.weight_ih_l1 f4 [192, 64]
0	0xbd66d655	-0.056356747
1	0xbaa9f200	-0.0012965798
2	0x3dcd9712	0.1003858
3	0x3cb10acd	0.021611596
4	0x3dab3272	0.08359231
5	0x3ca93dae	0.020659294
6	0xbd7bf1a0	-0.06150973
7	0xbd9c828c	-0.07642087
8	0x3dfd6125	0.123720445
9	0x3deb406d	0.114868976
10	0x3ced275d	0.028949434
11	0x3ddf05b6	0.10889761
12	0x3df663d3	0.12030759
13	0x3d4c5506	0.049885772
14	0x3d8c936f	0.06864058
15	0xbda75540	-0.08170557
16	0x3c2e6f2d	0.010646624
17	0xbcd2e013	-0.025741613
18	0x3c9d1f58	0.019179985
19	0x3de9de3c	0.11419341
20	0x3bd0ea57	0.0063755917
21	0x3bdb8b83	0.0066999807
22	0x3d073234	0.03300686
23	0x3c265043	0.010150972
24	0xbdb6f844	-0.08934072
25	0x3ccbaca8	0.024862602
26	0x3da8039c	0.082038134
27	0x3dc7bf2e	0.097532615
28	0x3d8c7964	0.06859091
29	0x3deff484	0.117165595
30	0x3da96712	0.08271612
31	0xbd44c5ac	-0.048040077
32	0xbd9696e8	-0.07353002
33	0x3de68be8	0.11257154
34	0x3c418c10	0.011813179
35	0xbdaabb08	-0.08336455
36	0xbd8845ab	-0.06653913
37	0xbb59a280	-0.003320843
38	0xbdfe9371	-0.12430466
39	0x3d609fc7	0.054839876
40	0xbcf81450	-0.030283123
41	0x3bb7a417	0.005604278
42	0x3dd48b08	0.103780806
43	0xbdb3c521	-0.08777834
44	0xbc405a4a	-0.011740277
45	0x3d19c663	0.037542712
46	0x3ca4ba30	0.020108312
47	0xbcb1ecf8	-0.02171944
48	0xbcbc9d93	-0.023024356
49	0xbe13320d	-0.14374562
50	0xbcf06578	-0.02934526
51	0x3d47a7d4	0.048744038
52	0xbdbd3194	-0.09237972
53	0xbd7d1901	-0.061791424
54	0x3d954e0c	0.07290277
55	0x3dfd0cca	0.12355955
56	0x3dbec204	0.09314349
57	0xbc9e50e8	-0.019325688
58	0xbdbf339b	-0.09336015
59	0xbd56d2fb	-0.0524473
60	0x3c1184b8	0.00888174
61	0x3d1f6e78	0.03892371
62	0x3daeb2e9	0.08530218
63	0xbd64d052	-0.055862732
64	0x3c0b00f1	0.008484111
65	0xbd250320	-0.040286183
66	0xbc28dc43	-0.010306421
67	0xbc777380	-0.015103221
68	0x39d1e600	0.0004003495
69	0xbc042ea5	-0.008067762
70	0xbd199470	-0.037495077
71	0x3bdb4ee3	0.0066927536
72	0xbda9b4e7	-0.082864575
73	0x3d190c39	0.037365172
74	0xbd006261	-0.03134382
75	0x3d1ba0a8	0.03799501
76	0xbd1bb0f7	-0.038010564
77	0xbb3d6011	-0.0028896371
78	0xbda9d04d	-0.08291683
79	0x3d9c0f3c	0.07620093
80	0x3d5069af	0.050882038
81	0xbd337290	-0.043810427
82	0xbd8c7c68	-0.06859666
83	0x3c91ad79	0.017782914
84	0xbdcd482f	-0.100235336
85	0xbd99dee9	-0.0751322
86	0xbd98a938	-0.07454151
87	0xbdcfa839	-0.10139508
88	0x3d23543c	0.039875254
89	0x3dbc58fe	0.091966614
90	0xbc39fbf6	-0.011351576
91	0xbd51ef68	-0.051253706
92	0x3d854329	0.065069504
93	0x3dc41545	0.09574369
94	0x3ddded6d	0.10836301
95	0xbcd6b018	-0.026207015
96	0x3d13b0e5	0.03605737
97	0xbcbfe7e7	-0.02342601
98	0x3d662298	0.056185335
99	0xbd145207	-0.03621104
100	0xbd1244b6	-0.03571006
101	0x3d774140	0.06036496
102	0x3dbd3e6d	0.092404224
103	0xbc2d5ae1	-0.010580749
104	0xbcd48b50	-0.025945336
105	0xbd091749	-0.033469472
106	0x3caff79f	0.02148038
107	0xbce03a15	-0.027371446
108	0x3da5f3b8	0.08103126
109	0xbd86f27d	-0.0658922
110	0x3cec9d10	0.028883487
111	0xbce8b688	-0.02840735
112	0xbce17b25	-0.02752454
113	0xbdac32e9	-0.08408148
114	0xbd175608	-0.03694728
115	0x3df2f748	0.118635714
116	0x3d9e5e97	0.07732885
117	0xbd960835	-0.07325784
118	0x3d990e88	0.07473475
119	0xbd977b67	-0.07396584
120	0xbb2b6159	-0.0026150553
121	0x3d8b5228	0.068027794
122	0xbdf8b9f1	-0.121448405
123	0x3ccd8441	0.025087478
124	0x3e07f21e	0.13275954
125	0xbdd7244c	-0.1050497
126	0x3d0c176b	0.03420202
127	0x3ce58efa	0.028022278
128	0xbe1c1764	-0.15243298
129	0x3d152d00	0.03641987
130	0xbd23ca1b	-0.039987665
131	0xbdc4d336	-0.09610598
132	0xbd00e344	-0.031466737
133	0xbd8b32d0	-0.06796801
134	0xbdb40c5e	-0.08791421
135	0x3cf1dc80	0.029524088
136	0x3df8d484	0.12149909
137	0xbc722e7e	-0.014781592
138	0xbd6f1fe5	-0.058380026
139	0x3d610310	0.05493456
140	0x3ddbea7b	0.10738083
141	0x3d648137	0.05578729
142	0x3c897959	0.016781496
143	0xbd3393a0	-0.043841958
144	0x3d3072f1	0.043078367
145	0xba733a5c	-0.00092784106
146	0x3dd0b6dc	0.10191128
147	0x3d97e3f7	0.07416528
148	0xbe0c1e37	-0.13683401
149	0x3de1bc2e	0.110222206
150	0x3be22fa0	0.00690265
151	0x3d8bbff4	0.068237215
152	0xbde8d8fe	-0.11369513
153	0xbb97b780	-0.004630029
154	0x3d9b7a60	0.075917006
155	0xbd2c4cc4	-0.042065397
156	0xbdaefeec	-0.08544716
157	0x3dc6d134	0.09707871
158	0x3c815ad7	0.015790386
159	0x3d68297c	0.056680188
160	0xbcdd6738	-0.027026758
161	0xbdf77efb	-0.120847665
162	0xbdf6860e	-0.12037288
163	0x3d070f59	0.03297362
164	0x3be4e1d7	0.00698493
165	0xbd888136	-0.0666527
166	0x3c9ef539	0.01940404
167	0xbda7ef0c	-0.081998914
168	0x3dd3bf2c	0.103391975
169	0xbd4586fe	-0.04822444
170	0xbdd09cdc	-0.101861686
171	0xbdb58536	-0.088632986
172	0x3d801fa7	0.06256037
173	0x3ddc15a6	0.107463166
174	0x3c4739a0	0.012159735
175	0x3d81c038	0.06335491
176	0x3d29d1ac	0.041459724
177	0xbd9de0a2	-0.07708861
178	0x3d930d04	0.07180217
179	0x3d4e3cd0	0.050350964
180	0xbde3eb6e	-0.11128889
181	0x3e030684	0.12795454
182	0xbdfbc437	-0.122932844
183	0x3d5419e9	0.051782522
184	0x3d81464a	0.06312235
185	0xbd764068	-0.060120016
186	0x3d3614a1	0.044453267
187	0x3d21a7b1	0.039466564
188	0xbceb2c5c	-0.028707676
189	0x3c41ff90	0.011840716
190	0x3b5ec820	0.0033993796
191	0x3ddf72c4	0.10910562
192	0xbcdcf293	-0.026971137
193	0xbd968ae6	-0.073507115
194	0x3da22443	0.079170726
195	0x3dc1a52d	0.09455333
196	0x3de50d00	0.1118412
197	0xbde62519	-0.112375446
198	0x3dc749fe	0.0973091
199	0xbdba3af4	-0.09093276
200	0xbd04d432	-0.032428928
201	0x3d22e24d	0.0397666
202	0x3d1a8f6e	0.03773444
203	0xbd295a6c	-0.041346
204	0xbd8375f9	-0.06418986
205	0xbd8485e3	-0.06470849
206	0xbde4d9d6	-0.111743614
207	0x3da260c8	0.07928616
208	0x3c2134f7	0.009839288
209	0xbd289b36	-0.041163646
210	0xbdafe948	-0.08589417
211	0xbe0d79bb	-0.13815968
212	0x3d3641d6	0.04449638
213	0xbdf921a6	-0.12164621
214	0xbdc10920	-0.094255686
215	0xbbf08469	-0.0073400033
216	0xbd4782c0	-0.048708677
217	0xbcef4d98	-0.029211804
218	0xbd849e29	-0.06475479
219	0xbd8f4b5c	-0.069967955
220	0xbd9f3663	-0.07774045
221	0x3da29baf	0.079398505
222	0x3c9858f5	0.018597106
223	0xbdc6202c	-0.09674105
224	0xbc2fc10d	-0.010727179
225	0x3ce4f938	0.027950868
226	0x3d6360a0	0.05551207
227	0xbceb2d4b	-0.02870812
228	0x3dc14904	0.09437755
229	0x3dc44a1a	0.09584446
230	0x3d6ed1f2	0.05830569
231	0xbc943f69	-0.018096643
232	0x3d41a7f8	0.047279328
233	0x3e1a56b7	0.15072142
234	0x3d4b90c8	0.04969862
235	0xbdb68ecf	-0.08913957
236	0xbd75ebd0	-0.06003934
237	0x3d57fc07	0.052730586
238	0x3a99b580	0.0011727065
239	0xbdfed36a	-0.12442668
240	0x3dab6ebd	0.08370731
241	0xbc999cdd	-0.018751556
242	0xbd872c7a	-0.0660028
243	0x3dfe0b48	0.124044955
244	0x3cd26a5b	0.02568548
245	0xbc8ae6c1	-0.016955735
246	0x3b1264bf	0.0022337881
247	0x3e014fa4	0.12628037
248	0x3d313e44	0.04327227
249	0xbd707714	-0.05870731
250	0x3d22e180	0.039765835
251	0xbd19e1ee	-0.03756898
252	0xbcbcc429	-0.023042755
253	0x3dc19a00	0.09453201
254	0x3b935b35	0.0044969567
255	0x3b08e555	0.0020888646

gru.weight_hh_l1 f4 [192, 64]
0	0x3dde2136	0.10846178
1	0xbdc8a1ce	-0.09796487
2	0xbe066379	-0.13123883
3	0x3e17e594	0.14833671
4	0x3d4e4850	0.05036193
5	0xbdc9fa9b	-0.09862252
6	0xbe106e61	-0.14104606
7	0x3d84729e	0.06467174
8	0x3dce55fc	0.10074994
9	0xbd87966f	-0.0662049
10	0xbd137ef7	-0.036009755
11	0x3c8bf09a	0.017082501
12	0xbd502dc7	-0.050824907
13	0x380a18ae	3.292475e-05
14	0x3d50b414	0.050952986
15	0xbe23f129	-0.16009964
16	0x3df51796	0.11967389
17	0xbc9e9107	-0.019356264
18	0xbdc6ebbe	-0.09712933
19	0xbde1a194	-0.11017147
20	0xbe07c5d8	-0.13259065
21	0x3d95b3dd	0.07309697
22	0xbdb5626a	-0.088566616
23	0x3d360872	0.044441648
24	0xbbc824f2	-0.00610792
25	0x3de8a3d9	0.113593765
26	0xbdf69e36	-0.12041895
27	0xbda65dff	-0.08123397
28	0x3db67be1	0.08910347
29	0x3d77ac5a	0.0604671
30	0x3d13f95f	0.03612649
31	0xbdd1d83c	-0.102463216
32	0x3d8a5237	0.067539625
33	0xbd2e79eb	-0.04259674
34	0xbd9e805e	-0.07739328
35	0x3c03ed47	0.008052177
36	0xbdc2ab67	-0.09505349
37	0x3d1b64ba	0.037937857
38	0xbc27aae0	-0.010233611
39	0xbd1646e6	-0.036688708
40	0xbda57129	-0.08078224
41	0xbde9b88a	-0.11412151
42	0x3ce7c3b7	0.028291566
43	0xbdbf005c	-0.093262404
44	0x3d9071ce	0.070529565
45	0xbda6b816	-0.0814058
46	0xbb729a1c	-0.0037018126
47	0x3d7bc578	0.061467618
48	0xba9cf839	-0.0011975832
49	0xbdf491f9	-0.119419046
50	0xbc278b1d	-0.010226038
51	0x3df746e1	0.12074066
52	0xbd90a326	-0.07062368
53	0xbc4e77fd	-0.01260185
54	0x3d8eff01	0.06982232
55	0xbcdf568b	-0.027262947
56	0xbdc19969	-0.09453089
57	0x3da4bd0f	0.080438726
58	0x3de61eab	0.11236318
59	0xbd982c77	-0.07430356
60	0x3db34ce3	0.08754899
61	0x3cb06f2c	0.021537386
62	0x3ddd3b6d	0.1080235
63	0xbdcddb8b	-0.1005164
64	0xbd652a15	-0.055948336
65	0xbdb261ed	-0.08710084
66	0x3dffeda5	0.12496499
67	0x3d023d84	0.031796947
68	0xbe0ec7ad	-0.13943358
69	0x3d989c87	0.0745173
70	0xbdc4291e	-0.09578155
71	0xbda34bfa	-0.07973476
72	0x3d79695d	0.060891498
73	0xbc805bb6	-0.015668731
74	0x3d8393aa	0.06424649
75	0x3d538d4d	0.051648427
76	0x3d4bd056	0.04975923
77	0xbde10d17	-0.10988825
78	0xbd444f2d	-0.04792707
79	0x3d5abe31	0.053404037
80	0xbdd26f91	-0.10275186
81	0xbdd54e7c	-0.1041536
82	0x3da62189	0.08111865
83	0xbe2919c8	-0.16513741
84	0xbdd77072	-0.10519494
85	0x3de08502	0.10962869
86	0xbdb585b5	-0.08863393
87	0x3cfb8460	0.03070277
88	0xbe28f7a7	-0.16500722
89	0xbd756cc9	-0.0599182
90	0x3e22df28	0.1590544
91	0xbd8a1bcc	-0.06743583
92	0x3ccb4cff	0.024816988
93	0xbd85580f	-0.065109365
94	0x3c1dcf87	0.009631998
95	0xbbf7dc07	-0.007564071
96	0xbe08448d	-0.133074
97	0xbdf6aeab	-0.12045034
98	0xbd81a2bf	-0.063298695
99	0x3ce5e7ef	0.028064696
100	0xbda21f3b	-0.07916113
101	0x3d861a58	0.065479934
102	0xbda4d742	-0.0804887
103	0xbce73655	-0.02822415
104	0xbd19fa5a	-0.03759227
105	0x3e1174b6	0.14204678
106	0xbbd85cb5	-0.0066028484
107	0x3cd4ab35	0.025960544
108	0x3d5d84ef	0.054081853
109	0x3dca8319	0.09888286
110	0xbd210064	-0.039307013
111	0x3b87abc8	0.004140351
112	0x3dbbca04	0.09169391
113	0x3cbbd256	0.022927444
114	0x3d68e52b	0.056859177
115	0xbd11b1ae	-0.03556984
116	0x3db0bd93	0.086299084
117	0x3ddadfb2	0.10687198
118	0xbdd04ba4	-0.10170677
119	0x3d734bac	0.05939834
120	0xbbdd6a88	-0.0067570843
121	0x3d885077	0.066559725
122	0x3da1e609	0.07905204
123	0x3d93f755	0.07224909
124	0x3db2e4a4	0.08735016
125	0x3d4e65a7	0.050389912
126	0x3cd8c053	0.026458895
127	0xbda09ce1	-0.07842422
128	0xbda0ed55	-0.078577675
129	0xbd37236c	-0.044711515
130	0x3d039a2d	0.032129455
131	0xbd289521	-0.041157845
132	0x3cde11e6	0.027108144
133	0x3d51a437	0.051181998
134	0x3d4bfc78	0.04980132
135	0x3ca21c8e	0.019789007
136	0xbc268882	-0.010164382
137	0xbd047f22	-0.032347806
138	0x3c8439c8	0.016140833
139	0xbcf19ef5	-0.029494742
140	0xbd9fdf6b	-0.078062855
141	0x3df9ab94	0.12190929
142	0x3cb9bf68	0.022674277
143	0x3db49cbf	0.088189594
144	0xbccf1dd7	-0.025282783
145	0xbcf864ac	-0.030321442
146	0x3dbfc6d9	0.09364099
147	0xbd7ee58c	-0.06223063
148	0x3cfacc06	0.030614864
149	0xbd061ddc	-0.03274332
150	0xbad52c62	-0.0016263837
151	0xbd8663f9	-0.06562037
152	0x3d142e0c	0.036176726
153	0x3c2a70ca	0.010402868
154	0xbd0f287a	-0.03495071
155	0x3d3ca35c	0.04605423
156	0xba236a84	-0.00062338286
157	0xbd75a435	-0.059971053
158	0x3e01dc53	0.12681703
159	0xbc515716	-0.012777111
160	0xbd240337	-0.04004213
161	0xbd5663f5	-0.05234142
162	0xbdea9bf1	-0.11455525
163	0x3de62bc7	0.112388186
164	0x3dd0e386	0.10199647
165	0x3d6c8395	0.057742674
166	0xbcbd6361	-0.023118677
167	0xbcb3bb5e	-0.02193993
168	0xbd16dfeb	-0.03683464
169	0x3db4cdf3	0.08828344
170	0xbc780a66	-0.015139198
171	0x3e0392dd	0.12848993
172	0x3c208b67	0.009798861
173	0xbdad3c74	-0.08458796
174	0xbd6d541f	-0.057941552
175	0xbd16afe1	-0.036788825
176	0xbe04af27	-0.1295744
177	0x3dc338d6	0.09532325
178	0xbd528f40	-0.051406145
179	0x3df20f6d	0.118193485
180	0x3df2b62e	0.11851154
181	0xbd64fe39	-0.055906508
182	0x3d66ef91	0.056380812
183	0xbdbcec5a	-0.09224768
184	0x3dd3578b	0.10319432
185	0x3dd438ab	0.10362371
186	0x3c47e997	0.012201688
187	0xbd65b3c4	-0.05607964
188	0xbd880662	-0.066418424
189	0xbde6c72a	-0.11268456
190	0x3d1f9f16	0.038970076
191	0x3d1e7be4	0.03869237
192	0x3d14430b	0.03619675
193	0xbd9f9bae	-0.077933654
194	0x3d16cc1f	0.03681576
195	0x3d9f5e30	0.07781637
196	0xbd149bfd	-0.036281575
197	0xbde21cc1	-0.110406406
198	0x3db84445	0.089973964
199	0x3d53a0f9	0.051667187
200	0xbc84c860	-0.016208827
201	0x3daedf09	0.08538634
202	0xbc98ba82	-0.018643621
203	0x3ca6855e	0.020327266
204	0xbdbf361b	-0.09336492
205	0xbb9f032a	-0.004852672
206	0x3d35c729	0.044379387
207	0x3e0c4d4e	0.13701364
208	0x3d63fb00	0.055659294
209	0x3ca49c64	0.020094104
210	0x3e0b5a4d	0.13608666
211	0xbd032a23	-0.032022607
212	0x3d61791a	0.055047132
213	0xbd33ce8b	-0.043898147
214	0xbe087f24	-0.1332975
215	0x3dc96bfb	0.09835049
216	0x3ce462fd	0.027879233
217	0xbdfedfc9	-0.124450274
218	0xbdb01d10	-0.08599293
219	0x3d0e4b52	0.0347398
220	0xbd25c13a	-0.04046748
221	0xbc99dd34	-0.018782236
222	0xbcc075bf	-0.023493646
223	0xbd8a41b4	-0.06750813
224	0x3dd5fc4b	0.10448512
225	0x3bc9f73e	0.006163507
226	0xbd2de61d	-0.04245578
227	0x3ddda065	0.108216085
228	0xbc2142bf	-0.009842574
229	0x3d755192	0.059892245
230	0xbdbc9ac9	-0.092092104
231	0x3e120700	0.14260483
232	0x3cd5db66	0.026105594
233	0x3c9e15c7	0.019297494
234	0xbc791df0	-0.015204892
235	0xbe1075ea	-0.1410748
236	0x3d8cf611	0.06882871
237	0xbdfec07d	-0.12439058
238	0xbd9bf113	-0.07614341
239	0x3d80ab70	0.06282699
240	0x3df65542	0.120279804
241	0x3db6c45f	0.089241736
242	0xbd08cedb	-0.033400398
243	0x3ae0f051	0.0017161464
244	0xbc3612ca	-0.011112878
245	0xbd8fd305	-0.07022671
246	0xbd9365a7	-0.07197123
247	0xbd2b2d9e	-0.04179155
248	0x3bd14350	0.006386198
249	0x3def9582	0.11698438
250	0x3da38a77	0.079853944
251	0xbdf7bae8	-0.120961964
252	0xbd3970d9	-0.045273636
253	0x3e064a90	0.13114381
254	0xbd866e34	-0.06563988
255	0xbbad7921	-0.0052939807

gru.bias_ih_l1 f4 [192]
0	0x3d962fc6	0.07333331
1	0xbc8288c4	-0.015934356
2	0xbdfb155e	-0.12259935
3	0xbdbb7c21	-0.09154535
4	0xbdb6ad60	-0.089197874
5	0x3d8325b7	0.06403678
6	0x3d5c36a8	0.05376306
7	0xbd810189	-0.06299121
8	0xbdb8ca0e	-0.09022914
9	0xbd9fe694	-0.07807651
10	0xbc47c3be	-0.012192665
11	0xbd6ccf7e	-0.057815067
12	0x3ded84fa	0.11597629
13	0xbdb314e2	-0.087442175
14	0xbdb2755d	-0.087137915
15	0xbdd6f212	-0.1049539
16	0x3c6b8f56	0.014377436
17	0x3dd90c99	0.10598106
18	0xbdaacea7	-0.08340197
19	0x3e028af8	0.12748325
20	0xbcf1ac66	-0.029501151
21	0x3dc76936	0.09736864
22	0x3ce484b9	0.027895318
23	0xbda7e980	-0.081988335
24	0x3dbc3bde	0.09191106
25	0xbd962cae	-0.07332741
26	0xbbfc7317	-0.0077041495
27	0xbc4296d9	-0.011876785
28	0x3cfb8e68	0.030707553
29	0x3dbac19e	0.09118961
30	0xbd884dd8	-0.066554725
31	0x3df4a1af	0.11944901
32	0x3d00f65c	0.031484947
33	0x3de36be9	0.111045666
34	0x3dc55b23	0.096365236
35	0xbc089ecb	-0.00833864
36	0x3c8a7bbb	0.016904702
37	0xbd322b94	-0.04349859
38	0xbd88a73d	-0.06672523
39	0xbd6ceae6	-0.057841204
40	0xbe06b76b	-0.13155906
41	0xbb69cb4c	-0.0035674153
42	0xbd909340	-0.07059336
43	0xbddbac2b	-0.10726198
44	0x3da9d02f	0.08291661
45	0x3cab8569	0.020937638
46	0x3e0b2763	0.13589244
47	0x3d7749a0	0.06037295
48	0x3d43380a	0.047660865
49	0xbd8cfb1b	-0.06883832
50	0xbc638873	-0.0138875125
51	0x3d48ec6e	0.049053602
52	0x3b39984f	0.0028319543
53	0x3ab34ea8	0.0013680058
54	0xbddf36ed	-0.10899148
55	0x3d6f1997	0.058374014
56	0xbbe0d181	-0.0068609123
57	0x3ddd0dfa	0.107936814
58	0xbde3be56	-0.11120288
59	0x3db9fac5	0.090810336
60	0x3d3b726e	0.045763426
61	0xbd24c774	-0.040229276
62	0xbd97850c	-0.073984236
63	0x3d4f3ef3	0.050597142
64	0x3d68deed	0.056853224
65	0xbdc54051	-0.09631408
66	0xbd349454	-0.04408677
67	0xbc4a5211	-0.012348668
68	0xbd4d9077	-0.0501866
69	0xbc9545d4	-0.018221773
70	0xbd79d082	-0.060989864
71	0xbd1d91ec	-0.03846924
72	0x3dbef08b	0.09323224
73	0xbcdeffc2	-0.027221564
74	0x3da3309c	0.07968256
75	0x3d8d002e	0.068848
76	0x3c250adf	0.010073393
77	0x3d813d55	0.06310526
78	0xbc364568	-0.011124946
79	0x3de5c046	0.11218314
80	0x3cae71e2	0.021294538
81	0x3da88d7e	0.082301125
82	0x3e0b9678	0.13631618
83	0x3dd74c9d	0.1051266
84	0xbc8cf7e4	-0.017208047
85	0xbdbd87da	-0.09254427
86	0x3d914cd3	0.07094731
87	0xbc7482b5	-0.014923741
88	0xbd4058b0	-0.04695958
89	0x3dc52b62	0.09627415
90	0xbda5e52e	-0.08100353
91	0x3b74f7bd	0.0037379109
92	0x3df32309	0.11871917
93	0xbd2a39fc	-0.041559204
94	0x3dda65b9	0.10663933
95	0x3c56d07a	0.013111228
96	0xbbebfbbf	-0.0072016413
97	0x3e23ab08	0.15983212
98	0x3dcee6f2	0.10102643
99	0xbd19350e	-0.037404113
100	0xbd9a8894	-0.075455815
101	0x3cad7420	0.021173537
102	0x3e1441f3	0.14478283
103	0x3d70b81e	0.058769338
104	0x3df2f4aa	0.11863072
105	0x3d892295	0.06696049
106	0x3c167395	0.00918283
107	0x3dd8d063	0.105866216
108	0x3df6ba72	0.1204728
109	0x3d03f973	0.032220315
110	0x3d9b0c84	0.075707465
111	0x3dd21e07	0.102596335
112	0xbb0d8dff	-0.002159953
113	0x3da97269	0.08273775
114	0xbdb7ef9a	-0.08981247
115	0xbca90439	-0.020631896
116	0x3dc583c8	0.09644276
117	0x3ac20ff9	0.0014805786
118	0xbbcdfceb	-0.0062862537
119	0x3d8d31fd	0.068943
120	0xbc8510da	-0.016243387
121	0x3cadabf4	0.021200158
122	0xbce59b27	-0.028028084
123	0xbc968b39	-0.018376933
124	0x3df3071c	0.118665904
125	0x3dd36ffa	0.10324092
126	0x3e00790c	0.12546176
127	0x3d82b3cc	0.0638195
128	0x3d898a3e	0.06715821
129	0x3d66d9d5	0.056360085
130	0x3d58bb5c	0.052913055
131	0xbd1c4b36	-0.038157664
132	0x3deb2a93	0.1148273
133	0x3d990494	0.07471576
134	0x3de38d52	0.11110939
135	0x3c7dd57f	0.015492796
136	0xbd8fa40f	-0.070137136
137	0xbcacb5cf	-0.021082787
138	0xbdc09013	-0.0940248
139	0xbcc270d6	-0.023735445
140	0xbd8db5da	-0.06919451
141	0xbcf84df9	-0.030310618
142	0xbd86a0b4	-0.065736204
143	0xbd199b52	-0.03750164
144	0xbd4c87c1	-0.049934153
145	0xbd9507ee	-0.07276903
146	0xbc98a159	-0.018631624
147	0x3dd864a1	0.105660684
148	0xbdb57e65	-0.088619985
149	0xbde4f292	-0.11179079
150	0xbcc34878	-0.023838267
151	0x3b19a9a0	0.0023447052
152	0xbd776020	-0.060394406
153	0xbdd03c25	-0.10167722
154	0xbdefac6f	-0.11702811
155	0x3d1fd8cf	0.039025124
156	0x3ccb7764	0.024837203
157	0xbd378d8f	-0.044812735
158	0x3dd898a4	0.10575989
159	0xbd830aad	-0.063985206
160	0xbdbc9c76	-0.0920953
161	0x3d922a56	0.07136981
162	0xbdf8aabe	-0.121419415
163	0xbdd497c3	-0.10380509
164	0xbddc29cb	-0.10750159
165	0x3d5754ea	0.052571215
166	0xbde90e18	-0.11379641
167	0xbbbc35d3	-0.005743721
168	0x3c1ae03f	0.0094528785
169	0x3dd4cf74	0.10391131
170	0x3cce7139	0.025200473
171	0xbd20c469	-0.03924981
172	0xbdbabf87	-0.09118562
173	0xbdd03e30	-0.10168111
174	0xbdd6f434	-0.10495797
175	0xbd909237	-0.07059138
176	0xbca0ab7c	-0.01961302
177	0x3d60d88a	0.054894008
178	0xbc6dba58	-0.01450976
179	0x3dec5b19	0.11540813
180	0xbd669cef	-0.056302007
181	0x3dbc6dfb	0.092006646
182	0xbc214ff1	-0.00984572
183	0x3df622b6	0.12018339
184	0xbd8b50df	-0.06802534
185	0xbd9eb382	-0.07749082
186	0xbdd7a09b	-0.1052868
187	0x3db5ccf9	0.08876986
188	0xbd838006	-0.06420903
189	0xbd4c3612	-0.049856253
190	0x3da898cd	0.082322694
191	0xbe06e967	-0.13174973

gru.bias_hh_l1 f4 [192]
0	0xbdc15d93	-0.09441676
1	0x3d139751	0.03603298
2	0xbd98d0bc	-0.07461688
3	0x3d6ee4fd	0.05832385
4	0xbd2c2d52	-0.04203541
5	0xbd9baa1e	-0.07600807
6	0xbd3773e9	-0.044788275
7	0x3d3188e2	0.043343432
8	0xbdd4d570	-0.103922725
9	0x3dc5b4df	0.09653639
10	0x3d962ae4	0.073323995
11	0x3d894ef7	0.067045145
12	0x3c806224	0.015671797
13	0x3d061b74	0.032741025
14	0xbcd6ad5e	-0.026205715
15	0x3ba4ac8e	0.005025453
16	0xba729fe4	-0.0009255393
17	0xbcf8f60a	-0.030390758
18	0x3c6e3c4c	0.014540743
19	0xbdae2c19	-0.08504505
20	0x3d9d1e3f	0.076717846
21	0x3d20335e	0.039111488
22	0xbcf7a700	-0.030230999
23	0xbdd400ad	-0.103516914
24	0x3e11c68b	0.14235894
25	0x3dbc71cd	0.09201393
26	0xba00b762	-0.00049101387
27	0x3e21bf4f	0.15795635
28	0x3e11fcbc	0.14256567
29	0x3cd1eb33	0.025624847
30	0xbc19931f	-0.009373455
31	0x3d1764e4	0.03696145
32	0x3d937b54	0.07201257
33	0x3d114abe	0.03547167
34	0xbb6a74de	-0.0035775225
35	0xbd14ec26	-0.03635802
36	0xbd5685f3	-0.052373838
37	0x3da188bb	0.078874074
38	0xbd6fa610	-0.05850798
39	0x3d64ae54	0.055830315
40	0xbde599eb	-0.11210998
41	0xbcb575a2	-0.022150818
42	0x3ca54819	0.02017598
43	0xbc05e31e	-0.008171825
44	0x3dd67d8f	0.10473167
45	0x3d95bf5d	0.0731189
46	0x3cab8594	0.020937718
47	0x3d81af19	0.06332225
48	0xbd21bffa	-0.039489724
49	0x3d2e9e50	0.042631447
50	0x3b3164f1	0.0027068222
51	0x3e0bd3ad	0.13654967
52	0xbda2a086	-0.07940774
53	0xbc749fec	-0.0149307065
54	0xbd9655ef	-0.07340609
55	0xbc4d92a5	-0.01254717
56	0x3e044404	0.12916571
57	0x3dffe4a6	0.12494783
58	0xbd1b4e59	-0.037916515
59	0xbde598ce	-0.11210786
60	0x3d136cd1	0.035992447
61	0x3da5fc1d	0.081047274
62	0xbd9bad12	-0.0760137
63	0x3dee43ec	0.11634049
64	0x3d080f70	0.033217847
65	0xbd0d8a58	-0.034555763
66	0x3d802e88	0.06258875
67	0xbd7bb067	-0.061447527
68	0xbc602e57	-0.013682923
69	0xbd8132e6	-0.06308536
70	0x3dd80f13	0.1054975
71	0xbdec1e99	-0.115292735
72	0x3c5950c3	0.013263884
73	0x3df74c57	0.120751075
74	0x3d3de3bf	0.046359774
75	0x3dbba61c	0.09162542
76	0xbb232943	-0.002489642
77	0x3dfd46ed	0.12367044
78	0x3d202501	0.03909779
79	0xbd90e587	-0.07075029
80	0xbc804c2b	-0.01566132
81	0xbda4b803	-0.0804291
82	0xbd246b57	-0.04014143
83	0x3d91eb0c	0.0712491
84	0x3d85c6c9	0.06532056
85	0xbd5574a4	-0.05211319
86	0xbd27f65d	-0.041006435
87	0x3c34bebc	0.011031803
88	0xbb1429db	-0.0022607956
89	0xbdfce78a	-0.1234885
90	0x3d98fe41	0.0747037
91	0xbd8fdd0b	-0.070245825
92	0xbdd0b010	-0.10189831
93	0x3d7906dc	0.060797557
94	0xbd50ded6	-0.050993763
95	0xbdbe31a5	-0.09286813
96	0x3dc66ca7	0.096886925
97	0xbd2122ff	-0.039340016
98	0xbd73e963	-0.059548747
99	0x3e05e522	0.13075688
100	0x3e16b83e	0.1471872
101	0xbb678176	-0.0035324967
102	0xbd5b03e5	-0.05347051
103	0xbdd23c48	-0.10265404
104	0xbcb0e6e1	-0.021594467
105	0xbd410aa0	-0.047129273
106	0x3dec4f5e	0.115385756
107	0xbdb13110	-0.08651936
108	0xbb96cabd	-0.004601805
109	0xbde9e3e1	-0.114204176
110	0x3d39b812	0.04534156
111	0x3cd75d93	0.026289737
112	0xbd917b7a	-0.071036294
113	0x3e0816c5	0.13289936
114	0x3de89a96	0.1135761
115	0x3c3d7350	0.011563137
116	0x3d6fd75d	0.058554996
117	0x3ba37106	0.0049878387
118	0xbdcc70c0	-0.09982443
119	0xbce18c18	-0.027532622
120	0xbde71567	-0.11283379
121	0x3d131173	0.035905313
122	0x3d1ded52	0.038556404
123	0xbda87dcf	-0.08227121
124	0x3c9af0b6	0.018913608
125	0x3d8f8e6e	0.07009588
126	0x3e0b6521	0.13612796
127	0x3e091482	0.1338673
128	0xbd1959ed	-0.037439276
129	0xb8b9c914	-8.858941e-05
130	0xbccaeeb1	-0.02477202
131	0x3cdfd0cc	0.027321242
132	0xbd5bae31	-0.05363292
133	0xbc2e0950	-0.010622337
134	0xbdb60a77	-0.08888715
135	0xbb00696a	-0.0019594082
136	0x3d3aaf92	0.045577593
137	0x3d671697	0.056418028
138	0x3de6af06	0.11263852
139	0xbd35c39c	-0.044376
140	0x3d44a1f2	0.048006006
141	0x3d1c594a	0.03817109
142	0xbdf2fc0c	-0.118644804
143	0xbda77295	-0.08176152
144	0x3e0aa997	0.13541256
145	0x3a210f08	0.00061439024
146	0x3ce60bdc	0.028081827
147	0xbde90536	-0.11377947
148	0xbdbc02f1	-0.091802485
149	0xbc1e4b12	-0.009661453
150	0xbd4907b9	-0.04907963
151	0x3d812d8d	0.06307516
152	0xbc5a30fc	-0.013317343
153	0x3d6c816e	0.05774062
154	0x3df26cbd	0.118371464
155	0xbc85a1c4	-0.016312487
156	0x3cb2b468	0.02181454
157	0xbbc7b32e	-0.006094358
158	0xbd3efab8	-0.046625823
159	0xbdbf1606	-0.093303725
160	0x3d51ae16	0.051191412
161	0x3d922700	0.07136345
162	0xbe015b6b	-0.1263253
163	0xbd50c283	-0.05096675
164	0x3d37392f	0.04473227
165	0x3cd20e49	0.025641577
166	0xbd35fc38	-0.044429988
167	0x3d6c90c5	0.05775525
168	0xbd10bbbd	-0.03533529
169	0xbdb1a41b	-0.08673879
170	0xbd747be6	-0.05968847
171	0xbdd8f53b	-0.10593649
172	0x3d946c1c	0.07247183
173	0x3cce4ea8	0.02518399
174	0xbd938d99	-0.07204742
175	0x3dce1080	0.10061741
176	0xbcb2fee4	-0.021850057
177	0xbda36c28	-0.079796135
178	0x3d29e8c2	0.04148174
179	0xbce93b26	-0.028470587
180	0xbd25d263	-0.040483844
181	0xbdb93ff4	-0.09045401
182	0xbd64661f	-0.055761453
183	0x3d8091b5	0.062777914
184	0x3de8ceac	0.113675445
185	0xbdcb9b7b	-0.09941765
186	0x3d8fe9a3	0.070269845
187	0x3df6e974	0.120562464
188	0xbe02256f	-0.12709592
189	0x3da32469	0.07965929
190	0xbd3209bd	-0.04346632
191	0x3da9b150	0.08285773
